2023-09-01 13:15:32,486 - root - INFO - --------------------- Iniciando Experimento 4 ---------------------
2023-09-01 13:15:32,486 - root - INFO - Parametros
2023-09-01 13:15:32,486 - root - INFO - {'batch_size': 64,
 'dataset': 'CIFAR10',
 'epochs': 10,
 'learning_rate': 0.001,
 'network': 'LENET5',
 'num_workers': 1}
2023-09-01 13:15:32,486 - root - INFO - Construindo dataset para a rede LENET5
2023-09-01 13:15:34,179 - root - INFO - Construindo modelo para a rede LENET5
2023-09-01 13:15:34,183 - root - INFO - LeNet5(
  (layer1): Sequential(
    (0): Conv2d(3, 18, kernel_size=(5, 5), stride=(1, 1))
    (1): BatchNorm2d(18, eps=1e-05, momentum=0.1, affine=True, track_running_stats=True)
    (2): ReLU()
    (3): MaxPool2d(kernel_size=2, stride=2, padding=0, dilation=1, ceil_mode=False)
  )
  (layer2): Sequential(
    (0): Conv2d(18, 48, kernel_size=(5, 5), stride=(1, 1))
    (1): BatchNorm2d(48, eps=1e-05, momentum=0.1, affine=True, track_running_stats=True)
    (2): ReLU()
    (3): MaxPool2d(kernel_size=2, stride=2, padding=0, dilation=1, ceil_mode=False)
  )
  (fc): Linear(in_features=1200, out_features=360, bias=True)
  (relu): ReLU()
  (fc1): Linear(in_features=360, out_features=252, bias=True)
  (relu1): ReLU()
  (fc2): Linear(in_features=252, out_features=10, bias=True)
)
2023-09-01 13:15:34,183 - root - INFO - Iniciando treinamento
2023-09-01 13:15:34,183 - root - INFO - Epoch 1
-------------------------------
2023-09-01 13:15:34,183 - root - INFO - Treinando época 0
2023-09-01 13:16:18,812 - root - INFO - Testando época 0
2023-09-01 13:16:20,310 - root - INFO - Validando época 0
2023-09-01 13:16:21,729 - root - INFO - Epoch 2
…
              1.00276021194458,
              0.9388979786872864,
              1.0428424544334411,
              1.1903952610015869]}
2023-09-05 13:02:46,208 - root - INFO - --------------------- Iniciando Novo Treinamento 4 ---------------------
2023-09-05 13:02:46,208 - root - INFO - Parametros
2023-09-05 13:02:46,208 - root - INFO - {'batch_size': 64,
 'dataset': 'CIFAR10',
 'epochs': 10,
 'learning_rate': 0.001,
 'network': 'LENET5',
 'num_workers': 1}
2023-09-05 13:02:46,208 - root - INFO - Construindo dataset para a rede LENET5
2023-09-05 13:02:50,834 - root - INFO - LeNet5(
  (layer1): Sequential(
    (0): Conv2d(1, 6, kernel_size=(5, 5), stride=(1, 1))
    (1): BatchNorm2d(6, eps=1e-05, momentum=0.1, affine=True, track_running_stats=True)
    (2): ReLU()
    (3): MaxPool2d(kernel_size=2, stride=2, padding=0, dilation=1, ceil_mode=False)
  )
  (layer2): Sequential(
    (0): Conv2d(6, 16, kernel_size=(5, 5), stride=(1, 1))
    (1): BatchNorm2d(16, eps=1e-05, momentum=0.1, affine=True, track_running_stats=True)
    (2): ReLU()
    (3): MaxPool2d(kernel_size=2, stride=2, padding=0, dilation=1, ceil_mode=False)
  )
  (fc): Linear(in_features=400, out_features=120, bias=True)
  (relu): ReLU()
  (fc1): Linear(in_features=120, out_features=84, bias=True)
  (relu1): ReLU()
  (fc2): Linear(in_features=84, out_features=10, bias=True)
)
2023-09-05 13:02:50,835 - root - INFO - Iniciando treinamento
2023-09-05 13:02:50,835 - root - INFO - Epoch 1
-------------------------------
2023-09-05 13:03:51,113 - root - INFO - Validation loss decreased from : inf ----> 1.50039112701416 ----> Saving Model.......
2023-09-05 13:03:51,113 - root - INFO - Validation acc:  46.12
2023-09-05 13:03:51,113 - root - INFO - Best Test acc from 0 ----> 45.69
…
