2023-09-03 12:20:55,643 - root - INFO - --------------------- Iniciando Novo Treinamento 10 ---------------------
2023-09-03 12:20:55,644 - root - INFO - Parametros
2023-09-03 12:20:55,644 - root - INFO - {'batch_size': 32,
 'dataset': 'CIFAR10',
 'epochs': 10,
 'learning_rate': 0.01,
 'network': 'LENET5',
 'num_workers': 1}
2023-09-03 12:20:55,644 - root - INFO - Construindo dataset para a rede LENET5
2023-09-03 12:20:56,944 - root - INFO - LeNet5(
  (layer1): Sequential(
    (0): Conv2d(3, 18, kernel_size=(5, 5), stride=(1, 1))
    (1): BatchNorm2d(18, eps=1e-05, momentum=0.1, affine=True, track_running_stats=True)
    (2): ReLU()
    (3): MaxPool2d(kernel_size=2, stride=2, padding=0, dilation=1, ceil_mode=False)
  )
  (layer2): Sequential(
    (0): Conv2d(18, 48, kernel_size=(5, 5), stride=(1, 1))
    (1): BatchNorm2d(48, eps=1e-05, momentum=0.1, affine=True, track_running_stats=True)
    (2): ReLU()
    (3): MaxPool2d(kernel_size=2, stride=2, padding=0, dilation=1, ceil_mode=False)
  )
  (fc): Linear(in_features=1200, out_features=360, bias=True)
  (relu): ReLU()
  (fc1): Linear(in_features=360, out_features=252, bias=True)
  (relu1): ReLU()
  (fc2): Linear(in_features=252, out_features=10, bias=True)
)
2023-09-03 12:20:56,945 - root - INFO - Iniciando treinamento
2023-09-03 12:20:56,945 - root - INFO - Epoch 1
-------------------------------
2023-09-03 12:22:14,085 - root - INFO - Validation loss decreased from : inf ----> 0.05684867080450058 ----> Saving Model.......
2023-09-03 12:22:14,085 - root - INFO - Validation acc:  40.78
2023-09-03 12:22:14,085 - root - INFO - Best Test acc from 0 ----> 41.410000000000004
…
              1.08694639377594,
              1.2070793182373047,
              1.09496068482399,
              1.202121216392517]}
2023-09-05 13:32:07,308 - root - INFO - --------------------- Iniciando Novo Treinamento 10 ---------------------
2023-09-05 13:32:07,308 - root - INFO - Parametros
2023-09-05 13:32:07,308 - root - INFO - {'batch_size': 32,
 'dataset': 'CIFAR10',
 'epochs': 10,
 'learning_rate': 0.01,
 'network': 'LENET5',
 'num_workers': 1}
2023-09-05 13:32:07,308 - root - INFO - Construindo dataset para a rede LENET5
2023-09-05 13:32:12,073 - root - INFO - LeNet5(
  (layer1): Sequential(
    (0): Conv2d(1, 6, kernel_size=(5, 5), stride=(1, 1))
    (1): BatchNorm2d(6, eps=1e-05, momentum=0.1, affine=True, track_running_stats=True)
    (2): ReLU()
    (3): MaxPool2d(kernel_size=2, stride=2, padding=0, dilation=1, ceil_mode=False)
  )
  (layer2): Sequential(
    (0): Conv2d(6, 16, kernel_size=(5, 5), stride=(1, 1))
    (1): BatchNorm2d(16, eps=1e-05, momentum=0.1, affine=True, track_running_stats=True)
    (2): ReLU()
    (3): MaxPool2d(kernel_size=2, stride=2, padding=0, dilation=1, ceil_mode=False)
  )
  (fc): Linear(in_features=400, out_features=120, bias=True)
  (relu): ReLU()
  (fc1): Linear(in_features=120, out_features=84, bias=True)
  (relu1): ReLU()
  (fc2): Linear(in_features=84, out_features=10, bias=True)
)
2023-09-05 13:32:12,073 - root - INFO - Iniciando treinamento
2023-09-05 13:32:12,073 - root - INFO - Epoch 1
-------------------------------
2023-09-05 13:34:05,740 - root - INFO - Validation loss decreased from : inf ----> 1.7605431053161622 ----> Saving Model.......
2023-09-05 13:34:05,740 - root - INFO - Validation acc:  37.49
2023-09-05 13:34:05,740 - root - INFO - Best Test acc from 0 ----> 37.2
…
