2023-09-02 01:48:08,214 - root - INFO - --------------------- Iniciando Novo Treinamento 20 ---------------------
2023-09-02 01:48:08,214 - root - INFO - Parametros
2023-09-02 01:48:08,215 - root - INFO - {'batch_size': 64,
 'dataset': 'FASHIONMNIST',
 'epochs': 25,
 'learning_rate': 0.001,
 'network': 'LENET5',
 'num_workers': 1}
2023-09-02 01:48:08,215 - root - INFO - Construindo dataset para a rede LENET5
2023-09-02 01:48:11,027 - root - INFO - Construindo modelo para a rede LENET5
2023-09-02 01:48:11,030 - root - INFO - LeNet5(
  (layer1): Sequential(
    (0): Conv2d(1, 6, kernel_size=(5, 5), stride=(1, 1))
    (1): BatchNorm2d(6, eps=1e-05, momentum=0.1, affine=True, track_running_stats=True)
    (2): ReLU()
    (3): MaxPool2d(kernel_size=2, stride=2, padding=0, dilation=1, ceil_mode=False)
  )
  (layer2): Sequential(
    (0): Conv2d(6, 16, kernel_size=(5, 5), stride=(1, 1))
    (1): BatchNorm2d(16, eps=1e-05, momentum=0.1, affine=True, track_running_stats=True)
    (2): ReLU()
    (3): MaxPool2d(kernel_size=2, stride=2, padding=0, dilation=1, ceil_mode=False)
  )
  (fc): Linear(in_features=400, out_features=120, bias=True)
  (relu): ReLU()
  (fc1): Linear(in_features=120, out_features=84, bias=True)
  (relu1): ReLU()
  (fc2): Linear(in_features=84, out_features=10, bias=True)
)
2023-09-02 01:48:11,031 - root - INFO - Iniciando treinamento
2023-09-02 01:48:11,031 - root - INFO - Epoch 1
-------------------------------
2023-09-02 01:51:05,919 - root - INFO - --------------------- Iniciando Novo Treinamento 20 ---------------------
2023-09-02 01:51:05,919 - root - INFO - Parametros
2023-09-02 01:51:05,919 - root - INFO - {'batch_size': 64,
 'dataset': 'FASHIONMNIST',
 'epochs': 25,
 'learning_rate': 0.001,
 'network': 'LENET5',
 'num_workers': 1}
2023-09-02 01:51:05,919 - root - INFO - Construindo dataset para a rede LENET5
2023-09-02 01:51:09,511 - root - INFO - Construindo modelo para a rede LENET5
2023-09-02 01:51:09,514 - root - INFO - LeNet5(
  (layer1): Sequential(
    (0): Conv2d(1, 6, kernel_size=(5, 5), stride=(1, 1))
    (1): BatchNorm2d(6, eps=1e-05, momentum=0.1, affine=True, track_running_stats=True)
    (2): ReLU()
    (3): MaxPool2d(kernel_size=2, stride=2, padding=0, dilation=1, ceil_mode=False)
  )
  (layer2): Sequential(
    (0): Conv2d(6, 16, kernel_size=(5, 5), stride=(1, 1))
    (1): BatchNorm2d(16, eps=1e-05, momentum=0.1, affine=True, track_running_stats=True)
    (2): ReLU()
    (3): MaxPool2d(kernel_size=2, stride=2, padding=0, dilation=1, ceil_mode=False)
  )
  (fc): Linear(in_features=400, out_features=120, bias=True)
  (relu): ReLU()
  (fc1): Linear(in_features=120, out_features=84, bias=True)
  (relu1): ReLU()
  (fc2): Linear(in_features=84, out_features=10, bias=True)
)
2023-09-02 01:51:09,514 - root - INFO - Iniciando treinamento
2023-09-02 01:51:09,514 - root - INFO - Epoch 1
-------------------------------
2023-09-02 01:52:11,193 - root - INFO - Validation loss decreased from : inf ----> 0.381731205322641 ----> Saving Model.......
2023-09-02 01:52:11,211 - root - INFO - Época: 1 - Test Acc: 85.16 - Val Acc: 85.76666666666667
…
 'test_loss': [… 'train_loss': [… 'val_loss': [… 2023-09-02 02:17:15,771 - root - INFO - Rodando evaluation
2023-09-02 02:17:15,771 - root - INFO - Construindo dataset para a rede LENET5
2023-09-03 15:08:32,139 - root - INFO - --------------------- Iniciando Novo Treinamento 20 ---------------------
2023-09-03 15:08:32,139 - root - INFO - Parametros
2023-09-03 15:08:32,139 - root - INFO - {'batch_size': 64,
 'dataset': 'FASHIONMNIST',
 'epochs': 25,
 'learning_rate': 0.001,
 'network': 'LENET5',
 'num_workers': 1}
2023-09-03 15:08:32,139 - root - INFO - Construindo dataset para a rede LENET5
2023-09-03 15:08:32,375 - root - INFO - LeNet5(
  (layer1): Sequential(
    (0): Conv2d(1, 6, kernel_size=(5, 5), stride=(1, 1))
    (1): BatchNorm2d(6, eps=1e-05, momentum=0.1, affine=True, track_running_stats=True)
    (2): ReLU()
    (3): MaxPool2d(kernel_size=2, stride=2, padding=0, dilation=1, ceil_mode=False)
  )
  (layer2): Sequential(
    (0): Conv2d(6, 16, kernel_size=(5, 5), stride=(1, 1))
    (1): BatchNorm2d(16, eps=1e-05, momentum=0.1, affine=True, track_running_stats=True)
    (2): ReLU()
    (3): MaxPool2d(kernel_size=2, stride=2, padding=0, dilation=1, ceil_mode=False)
  )
  (fc): Linear(in_features=400, out_features=120, bias=True)
  (relu): ReLU()
  (fc1): Linear(in_features=120, out_features=84, bias=True)
  (relu1): ReLU()
  (fc2): Linear(in_features=84, out_features=10, bias=True)
)
2023-09-03 15:08:32,376 - root - INFO - Iniciando treinamento
2023-09-03 15:08:32,376 - root - INFO - Epoch 1
-------------------------------
2023-09-03 15:09:19,034 - root - INFO - Validation loss decreased from : inf ----> 0.006192634625981251 ----> Saving Model.......
2023-09-03 15:09:19,034 - root - INFO - Validation acc:  85.125
2023-09-03 15:09:19,034 - root - INFO - Best Test acc from 0 ----> 84.48
…
