2023-09-02 02:22:52,187 - root - INFO - --------------------- Iniciando Novo Treinamento 15 ---------------------
2023-09-02 02:22:52,188 - root - INFO - Parametros
2023-09-02 02:22:52,188 - root - INFO - {'batch_size': 32,
 'dataset': 'CIFAR10',
 'epochs': 15,
 'learning_rate': 0.001,
 'network': 'LENET5',
 'num_workers': 1}
2023-09-02 02:22:52,188 - root - INFO - Construindo dataset para a rede LENET5
2023-09-02 02:22:53,438 - root - INFO - Construindo modelo para a rede LENET5
2023-09-02 02:22:53,442 - root - INFO - LeNet5(
  (layer1): Sequential(
    (0): Conv2d(3, 18, kernel_size=(5, 5), stride=(1, 1))
    (1): BatchNorm2d(18, eps=1e-05, momentum=0.1, affine=True, track_running_stats=True)
    (2): ReLU()
    (3): MaxPool2d(kernel_size=2, stride=2, padding=0, dilation=1, ceil_mode=False)
  )
  (layer2): Sequential(
    (0): Conv2d(18, 48, kernel_size=(5, 5), stride=(1, 1))
    (1): BatchNorm2d(48, eps=1e-05, momentum=0.1, affine=True, track_running_stats=True)
    (2): ReLU()
    (3): MaxPool2d(kernel_size=2, stride=2, padding=0, dilation=1, ceil_mode=False)
  )
  (fc): Linear(in_features=1200, out_features=360, bias=True)
  (relu): ReLU()
  (fc1): Linear(in_features=360, out_features=252, bias=True)
  (relu1): ReLU()
  (fc2): Linear(in_features=252, out_features=10, bias=True)
)
2023-09-02 02:22:53,443 - root - INFO - Iniciando treinamento
2023-09-02 02:22:53,443 - root - INFO - Epoch 1
-------------------------------
2023-09-02 02:24:10,951 - root - INFO - Validation loss decreased from : inf ----> 1.326487561384329 ----> Saving Model.......
2023-09-02 02:24:10,956 - root - INFO - Época: 1 - Test Acc: 54.75 - Val Acc: 54.339999999999996
…
              1.113403353691101,
              1.258223832511902,
              1.3434521096229552,
              1.3778946365356446]}
2023-09-05 14:10:44,820 - root - INFO - --------------------- Iniciando Novo Treinamento 15 ---------------------
2023-09-05 14:10:44,821 - root - INFO - Parametros
2023-09-05 14:10:44,821 - root - INFO - {'batch_size': 32,
 'dataset': 'CIFAR10',
 'epochs': 15,
 'learning_rate': 0.001,
 'network': 'LENET5',
 'num_workers': 1}
2023-09-05 14:10:44,821 - root - INFO - Construindo dataset para a rede LENET5
2023-09-05 14:10:49,577 - root - INFO - LeNet5(
  (layer1): Sequential(
    (0): Conv2d(1, 6, kernel_size=(5, 5), stride=(1, 1))
    (1): BatchNorm2d(6, eps=1e-05, momentum=0.1, affine=True, track_running_stats=True)
    (2): ReLU()
    (3): MaxPool2d(kernel_size=2, stride=2, padding=0, dilation=1, ceil_mode=False)
  )
  (layer2): Sequential(
    (0): Conv2d(6, 16, kernel_size=(5, 5), stride=(1, 1))
    (1): BatchNorm2d(16, eps=1e-05, momentum=0.1, affine=True, track_running_stats=True)
    (2): ReLU()
    (3): MaxPool2d(kernel_size=2, stride=2, padding=0, dilation=1, ceil_mode=False)
  )
  (fc): Linear(in_features=400, out_features=120, bias=True)
  (relu): ReLU()
  (fc1): Linear(in_features=120, out_features=84, bias=True)
  (relu1): ReLU()
  (fc2): Linear(in_features=84, out_features=10, bias=True)
)
2023-09-05 14:10:49,577 - root - INFO - Iniciando treinamento
2023-09-05 14:10:49,577 - root - INFO - Epoch 1
-------------------------------
2023-09-05 14:12:43,668 - root - INFO - Validation loss decreased from : inf ----> 1.5451950674057007 ----> Saving Model.......
2023-09-05 14:12:43,668 - root - INFO - Validation acc:  44.1
2023-09-05 14:12:43,668 - root - INFO - Best Test acc from 0 ----> 43.85
…
