2023-09-01 11:26:48,576 - root - INFO - --------------------- Iniciando Experimento 1 ---------------------
2023-09-01 11:26:48,577 - root - INFO - Parametros
2023-09-01 11:26:48,577 - root - INFO - {'batch_size': 8,
 'dataset': 'CIFAR10',
 'epochs': 10,
 'learning_rate': 0.001,
 'network': 'LENET5',
 'num_workers': 1}
2023-09-01 11:26:48,577 - root - INFO - Construindo dataset para a rede LENET5
2023-09-01 11:26:49,886 - root - INFO - Construindo modelo para a rede LENET5
2023-09-01 11:26:49,890 - root - INFO - LeNet5(
  (layer1): Sequential(
    (0): Conv2d(3, 18, kernel_size=(5, 5), stride=(1, 1))
    (1): BatchNorm2d(18, eps=1e-05, momentum=0.1, affine=True, track_running_stats=True)
    (2): ReLU()
    (3): MaxPool2d(kernel_size=2, stride=2, padding=0, dilation=1, ceil_mode=False)
  )
  (layer2): Sequential(
    (0): Conv2d(18, 48, kernel_size=(5, 5), stride=(1, 1))
    (1): BatchNorm2d(48, eps=1e-05, momentum=0.1, affine=True, track_running_stats=True)
    (2): ReLU()
    (3): MaxPool2d(kernel_size=2, stride=2, padding=0, dilation=1, ceil_mode=False)
  )
  (fc): Linear(in_features=1200, out_features=360, bias=True)
  (relu): ReLU()
  (fc1): Linear(in_features=360, out_features=252, bias=True)
  (relu1): ReLU()
  (fc2): Linear(in_features=252, out_features=10, bias=True)
)
2023-09-01 11:26:49,890 - root - INFO - Iniciando treinamento
2023-09-01 11:26:49,890 - root - INFO - Epoch 1
-------------------------------
2023-09-01 11:26:49,890 - root - INFO - Treinando época 0
2023-09-01 11:32:00,073 - root - INFO - Testando época 0
2023-09-01 11:32:02,330 - root - INFO - Validando época 0
2023-09-01 11:32:04,542 - root - INFO - Epoch 2
…
2023-09-01 16:55:05,720 - root - INFO - Construindo dataset para a rede LENET5
2023-09-01 16:55:09,551 - root - INFO - Testando época 0
2023-09-01 16:55:11,701 - root - INFO - Validando época 0
2023-09-03 12:51:42,694 - root - INFO - --------------------- Iniciando Novo Treinamento 1 ---------------------
2023-09-03 12:51:42,695 - root - INFO - Parametros
2023-09-03 12:51:42,696 - root - INFO - {'batch_size': 8,
 'dataset': 'CIFAR10',
 'epochs': 10,
 'learning_rate': 0.001,
 'network': 'LENET5',
 'num_workers': 1}
2023-09-03 12:51:42,696 - root - INFO - Construindo dataset para a rede LENET5
2023-09-03 12:51:46,683 - root - INFO - LeNet5(
  (layer1): Sequential(
    (0): Conv2d(3, 18, kernel_size=(5, 5), stride=(1, 1))
    (1): BatchNorm2d(18, eps=1e-05, momentum=0.1, affine=True, track_running_stats=True)
    (2): ReLU()
    (3): MaxPool2d(kernel_size=2, stride=2, padding=0, dilation=1, ceil_mode=False)
  )
  (layer2): Sequential(
    (0): Conv2d(18, 48, kernel_size=(5, 5), stride=(1, 1))
    (1): BatchNorm2d(48, eps=1e-05, momentum=0.1, affine=True, track_running_stats=True)
    (2): ReLU()
    (3): MaxPool2d(kernel_size=2, stride=2, padding=0, dilation=1, ceil_mode=False)
  )
  (fc): Linear(in_features=1200, out_features=360, bias=True)
  (relu): ReLU()
  (fc1): Linear(in_features=360, out_features=252, bias=True)
  (relu1): ReLU()
  (fc2): Linear(in_features=252, out_features=10, bias=True)
)
2023-09-03 12:51:46,685 - root - INFO - Iniciando treinamento
2023-09-03 12:51:46,686 - root - INFO - Epoch 1
-------------------------------
2023-09-03 12:54:02,035 - root - INFO - --------------------- Iniciando Novo Treinamento 1 ---------------------
2023-09-03 12:54:02,037 - root - INFO - Parametros
2023-09-03 12:54:02,037 - root - INFO - {'batch_size': 8,
 'dataset': 'CIFAR10',
 'epochs': 10,
 'learning_rate': 0.001,
 'network': 'LENET5',
 'num_workers': 1}
2023-09-03 12:54:02,038 - root - INFO - Construindo dataset para a rede LENET5
2023-09-03 12:54:06,068 - root - INFO - LeNet5(
  (layer1): Sequential(
    (0): Conv2d(3, 18, kernel_size=(5, 5), stride=(1, 1))
    (1): BatchNorm2d(18, eps=1e-05, momentum=0.1, affine=True, track_running_stats=True)
    (2): ReLU()
    (3): MaxPool2d(kernel_size=2, stride=2, padding=0, dilation=1, ceil_mode=False)
  )
  (layer2): Sequential(
    (0): Conv2d(18, 48, kernel_size=(5, 5), stride=(1, 1))
    (1): BatchNorm2d(48, eps=1e-05, momentum=0.1, affine=True, track_running_stats=True)
    (2): ReLU()
    (3): MaxPool2d(kernel_size=2, stride=2, padding=0, dilation=1, ceil_mode=False)
  )
  (fc): Linear(in_features=1200, out_features=360, bias=True)
  (relu): ReLU()
  (fc1): Linear(in_features=360, out_features=252, bias=True)
  (relu1): ReLU()
  (fc2): Linear(in_features=252, out_features=10, bias=True)
)
2023-09-03 12:54:06,070 - root - INFO - Iniciando treinamento
2023-09-03 12:54:06,071 - root - INFO - Epoch 1
-------------------------------
2023-09-03 12:58:15,466 - root - INFO - --------------------- Iniciando Novo Treinamento 1 ---------------------
2023-09-03 12:58:15,466 - root - INFO - Parametros
2023-09-03 12:58:15,466 - root - INFO - {'batch_size': 8,
 'dataset': 'CIFAR10',
 'epochs': 10,
 'learning_rate': 0.001,
 'network': 'LENET5',
 'num_workers': 1}
2023-09-03 12:58:15,466 - root - INFO - Construindo dataset para a rede LENET5
2023-09-03 12:58:16,709 - root - INFO - LeNet5(
  (layer1): Sequential(
    (0): Conv2d(3, 18, kernel_size=(5, 5), stride=(1, 1))
    (1): BatchNorm2d(18, eps=1e-05, momentum=0.1, affine=True, track_running_stats=True)
    (2): ReLU()
    (3): MaxPool2d(kernel_size=2, stride=2, padding=0, dilation=1, ceil_mode=False)
  )
  (layer2): Sequential(
    (0): Conv2d(18, 48, kernel_size=(5, 5), stride=(1, 1))
    (1): BatchNorm2d(48, eps=1e-05, momentum=0.1, affine=True, track_running_stats=True)
    (2): ReLU()
    (3): MaxPool2d(kernel_size=2, stride=2, padding=0, dilation=1, ceil_mode=False)
  )
  (fc): Linear(in_features=1200, out_features=360, bias=True)
  (relu): ReLU()
  (fc1): Linear(in_features=360, out_features=252, bias=True)
  (relu1): ReLU()
  (fc2): Linear(in_features=252, out_features=10, bias=True)
)
2023-09-03 12:58:16,710 - root - INFO - Iniciando treinamento
2023-09-03 12:58:16,710 - root - INFO - Epoch 1
-------------------------------
2023-09-03 13:04:19,852 - root - INFO - Validation loss decreased from : inf ----> 0.15498734023272992 ----> Saving Model.......
2023-09-03 13:04:19,852 - root - INFO - Validation acc:  55.81
2023-09-03 13:04:19,852 - root - INFO - Best Test acc from 0 ----> 55.26
…
