2023-09-01 13:00:24,617 - root - INFO - --------------------- Iniciando Experimento 3 ---------------------
2023-09-01 13:00:24,618 - root - INFO - Parametros
2023-09-01 13:00:24,618 - root - INFO - {'batch_size': 32,
 'dataset': 'CIFAR10',
 'epochs': 10,
 'learning_rate': 0.001,
 'network': 'LENET5',
 'num_workers': 1}
2023-09-01 13:00:24,618 - root - INFO - Construindo dataset para a rede LENET5
2023-09-01 13:00:26,003 - root - INFO - Construindo modelo para a rede LENET5
2023-09-01 13:00:26,007 - root - INFO - LeNet5(
  (layer1): Sequential(
    (0): Conv2d(3, 18, kernel_size=(5, 5), stride=(1, 1))
    (1): BatchNorm2d(18, eps=1e-05, momentum=0.1, affine=True, track_running_stats=True)
    (2): ReLU()
    (3): MaxPool2d(kernel_size=2, stride=2, padding=0, dilation=1, ceil_mode=False)
  )
  (layer2): Sequential(
    (0): Conv2d(18, 48, kernel_size=(5, 5), stride=(1, 1))
    (1): BatchNorm2d(48, eps=1e-05, momentum=0.1, affine=True, track_running_stats=True)
    (2): ReLU()
    (3): MaxPool2d(kernel_size=2, stride=2, padding=0, dilation=1, ceil_mode=False)
  )
  (fc): Linear(in_features=1200, out_features=360, bias=True)
  (relu): ReLU()
  (fc1): Linear(in_features=360, out_features=252, bias=True)
  (relu1): ReLU()
  (fc2): Linear(in_features=252, out_features=10, bias=True)
)
2023-09-01 13:00:26,007 - root - INFO - Iniciando treinamento
2023-09-01 13:00:26,007 - root - INFO - Epoch 1
-------------------------------
2023-09-01 13:00:26,007 - root - INFO - Treinando época 0
2023-09-01 13:01:50,384 - root - INFO - Testando época 0
2023-09-01 13:01:51,971 - root - INFO - Validando época 0
2023-09-01 13:01:53,471 - root - INFO - Epoch 2
…
              1.1070147853851318,
              0.9431570800304413,
              1.0696390195131302,
              1.0598886406898498]}
2023-09-05 12:43:24,220 - root - INFO - --------------------- Iniciando Novo Treinamento 3 ---------------------
2023-09-05 12:43:24,220 - root - INFO - Parametros
2023-09-05 12:43:24,220 - root - INFO - {'batch_size': 32,
 'dataset': 'CIFAR10',
 'epochs': 10,
 'learning_rate': 0.001,
 'network': 'LENET5',
 'num_workers': 1}
2023-09-05 12:43:24,220 - root - INFO - Construindo dataset para a rede LENET5
2023-09-05 12:43:29,144 - root - INFO - LeNet5(
  (layer1): Sequential(
    (0): Conv2d(1, 6, kernel_size=(5, 5), stride=(1, 1))
    (1): BatchNorm2d(6, eps=1e-05, momentum=0.1, affine=True, track_running_stats=True)
    (2): ReLU()
    (3): MaxPool2d(kernel_size=2, stride=2, padding=0, dilation=1, ceil_mode=False)
  )
  (layer2): Sequential(
    (0): Conv2d(6, 16, kernel_size=(5, 5), stride=(1, 1))
    (1): BatchNorm2d(16, eps=1e-05, momentum=0.1, affine=True, track_running_stats=True)
    (2): ReLU()
    (3): MaxPool2d(kernel_size=2, stride=2, padding=0, dilation=1, ceil_mode=False)
  )
  (fc): Linear(in_features=400, out_features=120, bias=True)
  (relu): ReLU()
  (fc1): Linear(in_features=120, out_features=84, bias=True)
  (relu1): ReLU()
  (fc2): Linear(in_features=84, out_features=10, bias=True)
)
2023-09-05 12:43:29,144 - root - INFO - Iniciando treinamento
2023-09-05 12:43:29,144 - root - INFO - Epoch 1
-------------------------------
2023-09-05 12:45:22,948 - root - INFO - Validation loss decreased from : inf ----> 1.5451950674057007 ----> Saving Model.......
2023-09-05 12:45:22,948 - root - INFO - Validation acc:  44.1
2023-09-05 12:45:22,948 - root - INFO - Best Test acc from 0 ----> 43.85
…
