…
2023-09-08 03:47:50,438 - root - INFO - Rodando evaluation
2023-09-08 03:47:50,438 - root - INFO - Construindo dataset para a rede LENET5
2023-09-08 04:08:31,569 - root - INFO - --------------------- Iniciando Novo Treinamento 89 ---------------------
2023-09-08 04:08:31,569 - root - INFO - Parametros
2023-09-08 04:08:31,569 - root - INFO - {'batch_size': 32,
 'dataset': 'CIFAR10',
 'epochs': 15,
 'learning_rate': 0.001,
 'network': 'LENET5',
 'num_workers': 1}
2023-09-08 04:08:31,569 - root - INFO - Construindo dataset para a rede LENET5
2023-09-08 04:08:32,971 - root - INFO - LeNet5(
  (layer1): Sequential(
    (0): Conv2d(1, 6, kernel_size=(5, 5), stride=(1, 1))
    (1): BatchNorm2d(6, eps=1e-05, momentum=0.1, affine=True, track_running_stats=True)
    (2): ReLU()
    (3): MaxPool2d(kernel_size=2, stride=2, padding=0, dilation=1, ceil_mode=False)
  )
  (layer2): Sequential(
    (0): Conv2d(6, 16, kernel_size=(5, 5), stride=(1, 1))
    (1): BatchNorm2d(16, eps=1e-05, momentum=0.1, affine=True, track_running_stats=True)
    (2): ReLU()
    (3): MaxPool2d(kernel_size=2, stride=2, padding=0, dilation=1, ceil_mode=False)
  )
  (fc): Linear(in_features=400, out_features=120, bias=True)
  (relu): ReLU()
  (fc1): Linear(in_features=120, out_features=84, bias=True)
  (relu1): ReLU()
  (fc2): Linear(in_features=84, out_features=10, bias=True)
)
2023-09-08 04:08:32,971 - root - INFO - Iniciando treinamento
2023-09-08 04:08:32,971 - root - INFO - Epoch 1
-------------------------------
2023-09-08 04:09:54,175 - root - INFO - Validation loss decreased from : inf ----> 1.5364089906692504 ----> Saving Model.......
2023-09-08 04:09:54,175 - root - INFO - Validation acc:  45.32
2023-09-08 04:09:54,175 - root - INFO - Best Test acc from 0 ----> 44.529999999999994
…
              1.193864109802246,
              1.2039887550354005,
              1.130003398323059,
              1.153698464679718]}
2023-09-08 08:48:19,199 - root - INFO - --------------------- Iniciando Novo Treinamento 89 ---------------------
2023-09-08 08:48:19,199 - root - INFO - Parametros
2023-09-08 08:48:19,200 - root - INFO - {'batch_size': 32,
 'dataset': 'CIFAR10',
 'epochs': 15,
 'learning_rate': 0.001,
 'network': 'LENET5',
 'num_workers': 1}
2023-09-08 08:48:19,200 - root - INFO - Construindo dataset para a rede LENET5
2023-09-08 08:48:31,154 - root - INFO - LeNet5(
  (layer1): Sequential(
    (0): Conv2d(3, 18, kernel_size=(5, 5), stride=(1, 1))
    (1): BatchNorm2d(18, eps=1e-05, momentum=0.1, affine=True, track_running_stats=True)
    (2): ReLU()
    (3): MaxPool2d(kernel_size=2, stride=2, padding=0, dilation=1, ceil_mode=False)
  )
  (layer2): Sequential(
    (0): Conv2d(18, 48, kernel_size=(5, 5), stride=(1, 1))
    (1): BatchNorm2d(48, eps=1e-05, momentum=0.1, affine=True, track_running_stats=True)
    (2): ReLU()
    (3): MaxPool2d(kernel_size=2, stride=2, padding=0, dilation=1, ceil_mode=False)
  )
  (fc): Linear(in_features=1200, out_features=360, bias=True)
  (relu): ReLU()
  (fc1): Linear(in_features=360, out_features=252, bias=True)
  (relu1): ReLU()
  (fc2): Linear(in_features=252, out_features=10, bias=True)
)
2023-09-08 08:48:31,155 - root - INFO - Iniciando treinamento
2023-09-08 08:48:31,155 - root - INFO - Epoch 1
-------------------------------
2023-09-08 08:50:15,928 - root - INFO - Validation loss decreased from : inf ----> 1.5354920240402221 ----> Saving Model.......
2023-09-08 08:50:15,928 - root - INFO - Validation acc:  49.059999999999995
2023-09-08 08:50:15,928 - root - INFO - Best Test acc from 0 ----> 49.04
…
