2023-09-02 01:45:26,099 - root - INFO - --------------------- Iniciando Novo Treinamento 11 ---------------------
2023-09-02 01:45:26,099 - root - INFO - Parametros
2023-09-02 01:45:26,099 - root - INFO - {'batch_size': 32,
 'dataset': 'CIFAR10',
 'epochs': 10,
 'learning_rate': 0.0001,
 'network': 'LENET5',
 'num_workers': 1}
2023-09-02 01:45:26,099 - root - INFO - Construindo dataset para a rede LENET5
2023-09-02 01:45:27,478 - root - INFO - Construindo modelo para a rede LENET5
2023-09-02 01:45:27,483 - root - INFO - LeNet5(
  (layer1): Sequential(
    (0): Conv2d(3, 18, kernel_size=(5, 5), stride=(1, 1))
    (1): BatchNorm2d(18, eps=1e-05, momentum=0.1, affine=True, track_running_stats=True)
    (2): ReLU()
    (3): MaxPool2d(kernel_size=2, stride=2, padding=0, dilation=1, ceil_mode=False)
  )
  (layer2): Sequential(
    (0): Conv2d(18, 48, kernel_size=(5, 5), stride=(1, 1))
    (1): BatchNorm2d(48, eps=1e-05, momentum=0.1, affine=True, track_running_stats=True)
    (2): ReLU()
    (3): MaxPool2d(kernel_size=2, stride=2, padding=0, dilation=1, ceil_mode=False)
  )
  (fc): Linear(in_features=1200, out_features=360, bias=True)
  (relu): ReLU()
  (fc1): Linear(in_features=360, out_features=252, bias=True)
  (relu1): ReLU()
  (fc2): Linear(in_features=252, out_features=10, bias=True)
)
2023-09-02 01:45:27,483 - root - INFO - Iniciando treinamento
2023-09-02 01:45:27,483 - root - INFO - Epoch 1
-------------------------------
2023-09-02 01:46:45,754 - root - INFO - Validation loss decreased from : inf ----> 1.2609915799987963 ----> Saving Model.......
2023-09-02 01:46:45,759 - root - INFO - Época: 1 - Test Acc: 54.620000000000005 - Val Acc: 54.24
…
              0.9352399602890015,
              0.9349961173534393,
              0.8732969547271728,
              0.9321435904979706]}
2023-09-05 13:51:25,321 - root - INFO - --------------------- Iniciando Novo Treinamento 11 ---------------------
2023-09-05 13:51:25,322 - root - INFO - Parametros
2023-09-05 13:51:25,322 - root - INFO - {'batch_size': 32,
 'dataset': 'CIFAR10',
 'epochs': 10,
 'learning_rate': 0.0001,
 'network': 'LENET5',
 'num_workers': 1}
2023-09-05 13:51:25,322 - root - INFO - Construindo dataset para a rede LENET5
2023-09-05 13:51:29,946 - root - INFO - LeNet5(
  (layer1): Sequential(
    (0): Conv2d(1, 6, kernel_size=(5, 5), stride=(1, 1))
    (1): BatchNorm2d(6, eps=1e-05, momentum=0.1, affine=True, track_running_stats=True)
    (2): ReLU()
    (3): MaxPool2d(kernel_size=2, stride=2, padding=0, dilation=1, ceil_mode=False)
  )
  (layer2): Sequential(
    (0): Conv2d(6, 16, kernel_size=(5, 5), stride=(1, 1))
    (1): BatchNorm2d(16, eps=1e-05, momentum=0.1, affine=True, track_running_stats=True)
    (2): ReLU()
    (3): MaxPool2d(kernel_size=2, stride=2, padding=0, dilation=1, ceil_mode=False)
  )
  (fc): Linear(in_features=400, out_features=120, bias=True)
  (relu): ReLU()
  (fc1): Linear(in_features=120, out_features=84, bias=True)
  (relu1): ReLU()
  (fc2): Linear(in_features=84, out_features=10, bias=True)
)
2023-09-05 13:51:29,946 - root - INFO - Iniciando treinamento
2023-09-05 13:51:29,946 - root - INFO - Epoch 1
-------------------------------
2023-09-05 13:53:23,488 - root - INFO - Validation loss decreased from : inf ----> 1.631580344581604 ----> Saving Model.......
2023-09-05 13:53:23,488 - root - INFO - Validation acc:  41.68
2023-09-05 13:53:23,488 - root - INFO - Best Test acc from 0 ----> 41.760000000000005
…
