2023-09-01 12:28:04,337 - root - INFO - --------------------- Iniciando Experimento 2 ---------------------
2023-09-01 12:28:04,338 - root - INFO - Parametros
2023-09-01 12:28:04,338 - root - INFO - {'batch_size': 16,
 'dataset': 'CIFAR10',
 'epochs': 10,
 'learning_rate': 0.001,
 'network': 'LENET5',
 'num_workers': 1}
2023-09-01 12:28:04,338 - root - INFO - Construindo dataset para a rede LENET5
2023-09-01 12:28:05,734 - root - INFO - Construindo modelo para a rede LENET5
2023-09-01 12:28:05,738 - root - INFO - LeNet5(
  (layer1): Sequential(
    (0): Conv2d(3, 18, kernel_size=(5, 5), stride=(1, 1))
    (1): BatchNorm2d(18, eps=1e-05, momentum=0.1, affine=True, track_running_stats=True)
    (2): ReLU()
    (3): MaxPool2d(kernel_size=2, stride=2, padding=0, dilation=1, ceil_mode=False)
  )
  (layer2): Sequential(
    (0): Conv2d(18, 48, kernel_size=(5, 5), stride=(1, 1))
    (1): BatchNorm2d(48, eps=1e-05, momentum=0.1, affine=True, track_running_stats=True)
    (2): ReLU()
    (3): MaxPool2d(kernel_size=2, stride=2, padding=0, dilation=1, ceil_mode=False)
  )
  (fc): Linear(in_features=1200, out_features=360, bias=True)
  (relu): ReLU()
  (fc1): Linear(in_features=360, out_features=252, bias=True)
  (relu1): ReLU()
  (fc2): Linear(in_features=252, out_features=10, bias=True)
)
2023-09-01 12:28:05,738 - root - INFO - Iniciando treinamento
2023-09-01 12:28:05,738 - root - INFO - Epoch 1
-------------------------------
2023-09-01 12:28:05,738 - root - INFO - Treinando época 0
2023-09-01 12:30:45,605 - root - INFO - Testando época 0
2023-09-01 12:30:47,361 - root - INFO - Validando época 0
2023-09-01 12:30:49,181 - root - INFO - Epoch 2
…
              0.8704456067323685,
              0.9523059138417244,
              1.0135201415538788,
              0.9978968167424201]}
2023-09-05 12:05:50,013 - root - INFO - --------------------- Iniciando Novo Treinamento 2 ---------------------
2023-09-05 12:05:50,013 - root - INFO - Parametros
2023-09-05 12:05:50,014 - root - INFO - {'batch_size': 16,
 'dataset': 'CIFAR10',
 'epochs': 10,
 'learning_rate': 0.001,
 'network': 'LENET5',
 'num_workers': 1}
2023-09-05 12:05:50,014 - root - INFO - Construindo dataset para a rede LENET5
2023-09-05 12:05:54,526 - root - INFO - LeNet5(
  (layer1): Sequential(
    (0): Conv2d(1, 6, kernel_size=(5, 5), stride=(1, 1))
    (1): BatchNorm2d(6, eps=1e-05, momentum=0.1, affine=True, track_running_stats=True)
    (2): ReLU()
    (3): MaxPool2d(kernel_size=2, stride=2, padding=0, dilation=1, ceil_mode=False)
  )
  (layer2): Sequential(
    (0): Conv2d(6, 16, kernel_size=(5, 5), stride=(1, 1))
    (1): BatchNorm2d(16, eps=1e-05, momentum=0.1, affine=True, track_running_stats=True)
    (2): ReLU()
    (3): MaxPool2d(kernel_size=2, stride=2, padding=0, dilation=1, ceil_mode=False)
  )
  (fc): Linear(in_features=400, out_features=120, bias=True)
  (relu): ReLU()
  (fc1): Linear(in_features=120, out_features=84, bias=True)
  (relu1): ReLU()
  (fc2): Linear(in_features=84, out_features=10, bias=True)
)
2023-09-05 12:05:54,526 - root - INFO - Iniciando treinamento
2023-09-05 12:05:54,526 - root - INFO - Epoch 1
-------------------------------
2023-09-05 12:09:33,643 - root - INFO - Validation loss decreased from : inf ----> 1.5181311737060548 ----> Saving Model.......
2023-09-05 12:09:33,643 - root - INFO - Validation acc:  45.9
2023-09-05 12:09:33,643 - root - INFO - Best Test acc from 0 ----> 44.59
…
