2023-09-02 01:31:10,870 - root - INFO - --------------------- Iniciando Novo Treinamento 9 ---------------------
2023-09-02 01:31:10,870 - root - INFO - Parametros
2023-09-02 01:31:10,870 - root - INFO - {'batch_size': 32,
 'dataset': 'CIFAR10',
 'epochs': 10,
 'learning_rate': 0.1,
 'network': 'LENET5',
 'num_workers': 1}
2023-09-02 01:31:10,870 - root - INFO - Construindo dataset para a rede LENET5
2023-09-02 01:32:10,015 - root - INFO - Construindo modelo para a rede LENET5
2023-09-02 01:32:10,019 - root - INFO - LeNet5(
  (layer1): Sequential(
    (0): Conv2d(3, 18, kernel_size=(5, 5), stride=(1, 1))
    (1): BatchNorm2d(18, eps=1e-05, momentum=0.1, affine=True, track_running_stats=True)
    (2): ReLU()
    (3): MaxPool2d(kernel_size=2, stride=2, padding=0, dilation=1, ceil_mode=False)
  )
  (layer2): Sequential(
    (0): Conv2d(18, 48, kernel_size=(5, 5), stride=(1, 1))
    (1): BatchNorm2d(48, eps=1e-05, momentum=0.1, affine=True, track_running_stats=True)
    (2): ReLU()
    (3): MaxPool2d(kernel_size=2, stride=2, padding=0, dilation=1, ceil_mode=False)
  )
  (fc): Linear(in_features=1200, out_features=360, bias=True)
  (relu): ReLU()
  (fc1): Linear(in_features=360, out_features=252, bias=True)
  (relu1): ReLU()
  (fc2): Linear(in_features=252, out_features=10, bias=True)
)
2023-09-02 01:32:10,019 - root - INFO - Iniciando treinamento
2023-09-02 01:32:10,019 - root - INFO - Epoch 1
-------------------------------
2023-09-02 01:33:29,470 - root - INFO - Validation loss decreased from : inf ----> 2.2916378228428265 ----> Saving Model.......
2023-09-02 01:33:29,478 - root - INFO - Época: 1 - Test Acc: 11.379999999999999 - Val Acc: 11.89
…
              2.3137317958831787,
              2.309496919631958,
              2.3082817604064942,
              2.311372598648071]}
2023-09-05 13:12:50,089 - root - INFO - --------------------- Iniciando Novo Treinamento 9 ---------------------
2023-09-05 13:12:50,089 - root - INFO - Parametros
2023-09-05 13:12:50,089 - root - INFO - {'batch_size': 32,
 'dataset': 'CIFAR10',
 'epochs': 10,
 'learning_rate': 0.1,
 'network': 'LENET5',
 'num_workers': 1}
2023-09-05 13:12:50,089 - root - INFO - Construindo dataset para a rede LENET5
2023-09-05 13:12:54,937 - root - INFO - LeNet5(
  (layer1): Sequential(
    (0): Conv2d(1, 6, kernel_size=(5, 5), stride=(1, 1))
    (1): BatchNorm2d(6, eps=1e-05, momentum=0.1, affine=True, track_running_stats=True)
    (2): ReLU()
    (3): MaxPool2d(kernel_size=2, stride=2, padding=0, dilation=1, ceil_mode=False)
  )
  (layer2): Sequential(
    (0): Conv2d(6, 16, kernel_size=(5, 5), stride=(1, 1))
    (1): BatchNorm2d(16, eps=1e-05, momentum=0.1, affine=True, track_running_stats=True)
    (2): ReLU()
    (3): MaxPool2d(kernel_size=2, stride=2, padding=0, dilation=1, ceil_mode=False)
  )
  (fc): Linear(in_features=400, out_features=120, bias=True)
  (relu): ReLU()
  (fc1): Linear(in_features=120, out_features=84, bias=True)
  (relu1): ReLU()
  (fc2): Linear(in_features=84, out_features=10, bias=True)
)
2023-09-05 13:12:54,937 - root - INFO - Iniciando treinamento
2023-09-05 13:12:54,937 - root - INFO - Epoch 1
-------------------------------
2023-09-05 13:14:47,691 - root - INFO - Validation loss decreased from : inf ----> 2.3075955421447754 ----> Saving Model.......
2023-09-05 13:14:47,691 - root - INFO - Validation acc:  9.75
2023-09-05 13:14:47,692 - root - INFO - Best Test acc from 0 ----> 10.0
…
